INFO:__main__:_________________________________________________________________
INFO:__main__:Layer (type)                 Output Shape              Param #   
INFO:__main__:=================================================================
INFO:__main__:dense_1 (Dense)              (None, 128)               512       
INFO:__main__:_________________________________________________________________
INFO:__main__:dense_2 (Dense)              (None, 64)                8256      
INFO:__main__:_________________________________________________________________
INFO:__main__:dense_3 (Dense)              (None, 32)                2080      
INFO:__main__:_________________________________________________________________
INFO:__main__:dense_4 (Dense)              (None, 16)                528       
INFO:__main__:_________________________________________________________________
INFO:__main__:dense_5 (Dense)              (None, 8)                 136       
INFO:__main__:_________________________________________________________________
INFO:__main__:dense_6 (Dense)              (None, 2)                 18        
INFO:__main__:=================================================================
INFO:__main__:Total params: 11,530
INFO:__main__:Trainable params: 11,530
INFO:__main__:Non-trainable params: 0
INFO:__main__:_________________________________________________________________
INFO:__main__:info:[{'policy': {'actionSize': 2, 'stateSize': 3, 'startTime': '06:00:00', 'endTime': '18:00:00'}, 'args
…
