…
INFO:Reinforcement.Functions:[Critic]: ResNet architecture
INFO:Reinforcement.Functions:===== ============ =====
INFO:Reinforcement.Functions:[Actor] model architecture:
INFO:Reinforcement.Functions:__________________________________________________________________________________________________
INFO:Reinforcement.Functions:Layer (type)                    Output Shape         Param #     Connected to                     
INFO:Reinforcement.Functions:==================================================================================================
INFO:Reinforcement.Functions:input_1 (InputLayer)            (None, 1, 8)         0                                            
INFO:Reinforcement.Functions:__________________________________________________________________________________________________
INFO:Reinforcement.Functions:dense_2 (Dense)                 (None, 1, 128)       1152        input_1[0][0]                    
INFO:Reinforcement.Functions:__________________________________________________________________________________________________
INFO:Reinforcement.Functions:activation_1 (Activation)       (None, 1, 128)       0           dense_2[0][0]                    
INFO:Reinforcement.Functions:__________________________________________________________________________________________________
INFO:Reinforcement.Functions:dense_3 (Dense)                 (None, 1, 128)       16512       activation_1[0][0]               
INFO:Reinforcement.Functions:__________________________________________________________________________________________________
INFO:Reinforcement.Functions:dense_1 (Dense)                 (None, 1, 128)       1152        input_1[0][0]                    
INFO:Reinforcement.Functions:__________________________________________________________________________________________________
INFO:Reinforcement.Functions:add_1 (Add)                     (None, 1, 128)       0           dense_3[0][0]                    
INFO:Reinforcement.Functions:                                                                 dense_1[0][0]                    
INFO:Reinforcement.Functions:__________________________________________________________________________________________________
INFO:Reinforcement.Functions:activation_2 (Activation)       (None, 1, 128)       0           add_1[0][0]                      
INFO:Reinforcement.Functions:__________________________________________________________________________________________________
INFO:Reinforcement.Functions:dense_4 (Dense)                 (None, 1, 128)       16512       activation_2[0][0]               
INFO:Reinforcement.Functions:__________________________________________________________________________________________________
INFO:Reinforcement.Functions:activation_3 (Activation)       (None, 1, 128)       0           dense_4[0][0]                    
INFO:Reinforcement.Functions:__________________________________________________________________________________________________
INFO:Reinforcement.Functions:dense_5 (Dense)                 (None, 1, 128)       16512       activation_3[0][0]               
INFO:Reinforcement.Functions:__________________________________________________________________________________________________
INFO:Reinforcement.Functions:add_2 (Add)                     (None, 1, 128)       0           dense_5[0][0]                    
INFO:Reinforcement.Functions:                                                                 activation_2[0][0]               
INFO:Reinforcement.Functions:__________________________________________________________________________________________________
INFO:Reinforcement.Functions:activation_4 (Activation)       (None, 1, 128)       0           add_2[0][0]                      
INFO:Reinforcement.Functions:__________________________________________________________________________________________________
INFO:Reinforcement.Functions:dense_6 (Dense)                 (None, 1, 128)       16512       activation_4[0][0]               
INFO:Reinforcement.Functions:__________________________________________________________________________________________________
INFO:Reinforcement.Functions:activation_5 (Activation)       (None, 1, 128)       0           dense_6[0][0]                    
INFO:Reinforcement.Functions:__________________________________________________________________________________________________
INFO:Reinforcement.Functions:dense_7 (Dense)                 (None, 1, 128)       16512       activation_5[0][0]               
INFO:Reinforcement.Functions:__________________________________________________________________________________________________
INFO:Reinforcement.Functions:add_3 (Add)                     (None, 1, 128)       0           dense_7[0][0]                    
INFO:Reinforcement.Functions:                                                                 activation_4[0][0]               
INFO:Reinforcement.Functions:__________________________________________________________________________________________________
INFO:Reinforcement.Functions:activation_6 (Activation)       (None, 1, 128)       0           add_3[0][0]                      
INFO:Reinforcement.Functions:__________________________________________________________________________________________________
INFO:Reinforcement.Functions:dense_8 (Dense)                 (None, 1, 128)       16512       activation_6[0][0]               
INFO:Reinforcement.Functions:__________________________________________________________________________________________________
INFO:Reinforcement.Functions:activation_7 (Activation)       (None, 1, 128)       0           dense_8[0][0]                    
INFO:Reinforcement.Functions:__________________________________________________________________________________________________
INFO:Reinforcement.Functions:dense_9 (Dense)                 (None, 1, 128)       16512       activation_7[0][0]               
INFO:Reinforcement.Functions:__________________________________________________________________________________________________
INFO:Reinforcement.Functions:add_4 (Add)                     (None, 1, 128)       0           dense_9[0][0]                    
INFO:Reinforcement.Functions:                                                                 activation_6[0][0]               
INFO:Reinforcement.Functions:__________________________________________________________________________________________________
INFO:Reinforcement.Functions:activation_8 (Activation)       (None, 1, 128)       0           add_4[0][0]                      
INFO:Reinforcement.Functions:__________________________________________________________________________________________________
INFO:Reinforcement.Functions:dense_10 (Dense)                (None, 1, 128)       16512       activation_8[0][0]               
INFO:Reinforcement.Functions:__________________________________________________________________________________________________
INFO:Reinforcement.Functions:activation_9 (Activation)       (None, 1, 128)       0           dense_10[0][0]                   
INFO:Reinforcement.Functions:__________________________________________________________________________________________________
INFO:Reinforcement.Functions:dense_11 (Dense)                (None, 1, 128)       16512       activation_9[0][0]               
INFO:Reinforcement.Functions:__________________________________________________________________________________________________
INFO:Reinforcement.Functions:add_5 (Add)                     (None, 1, 128)       0           dense_11[0][0]                   
INFO:Reinforcement.Functions:                                                                 activation_8[0][0]               
INFO:Reinforcement.Functions:__________________________________________________________________________________________________
INFO:Reinforcement.Functions:activation_10 (Activation)      (None, 1, 128)       0           add_5[0][0]                      
INFO:Reinforcement.Functions:__________________________________________________________________________________________________
INFO:Reinforcement.Functions:dense_12 (Dense)                (None, 1, 128)       16512       activation_10[0][0]              
INFO:Reinforcement.Functions:__________________________________________________________________________________________________
INFO:Reinforcement.Functions:activation_11 (Activation)      (None, 1, 128)       0           dense_12[0][0]                   
INFO:Reinforcement.Functions:__________________________________________________________________________________________________
INFO:Reinforcement.Functions:dense_13 (Dense)                (None, 1, 128)       16512       activation_11[0][0]              
INFO:Reinforcement.Functions:__________________________________________________________________________________________________
INFO:Reinforcement.Functions:add_6 (Add)                     (None, 1, 128)       0           dense_13[0][0]                   
INFO:Reinforcement.Functions:                                                                 activation_10[0][0]              
INFO:Reinforcement.Functions:__________________________________________________________________________________________________
INFO:Reinforcement.Functions:activation_12 (Activation)      (None, 1, 128)       0           add_6[0][0]                      
INFO:Reinforcement.Functions:__________________________________________________________________________________________________
INFO:Reinforcement.Functions:dense_14 (Dense)                (None, 1, 128)       16512       activation_12[0][0]              
INFO:Reinforcement.Functions:__________________________________________________________________________________________________
INFO:Reinforcement.Functions:activation_13 (Activation)      (None, 1, 128)       0           dense_14[0][0]                   
INFO:Reinforcement.Functions:__________________________________________________________________________________________________
INFO:Reinforcement.Functions:dense_15 (Dense)                (None, 1, 128)       16512       activation_13[0][0]              
INFO:Reinforcement.Functions:__________________________________________________________________________________________________
INFO:Reinforcement.Functions:add_7 (Add)                     (None, 1, 128)       0           dense_15[0][0]                   
INFO:Reinforcement.Functions:                                                                 activation_12[0][0]              
INFO:Reinforcement.Functions:__________________________________________________________________________________________________
INFO:Reinforcement.Functions:activation_14 (Activation)      (None, 1, 128)       0           add_7[0][0]                      
INFO:Reinforcement.Functions:__________________________________________________________________________________________________
INFO:Reinforcement.Functions:dense_16 (Dense)                (None, 1, 128)       16512       activation_14[0][0]              
INFO:Reinforcement.Functions:__________________________________________________________________________________________________
INFO:Reinforcement.Functions:activation_15 (Activation)      (None, 1, 128)       0           dense_16[0][0]                   
INFO:Reinforcement.Functions:__________________________________________________________________________________________________
INFO:Reinforcement.Functions:dense_17 (Dense)                (None, 1, 128)       16512       activation_15[0][0]              
INFO:Reinforcement.Functions:__________________________________________________________________________________________________
INFO:Reinforcement.Functions:add_8 (Add)                     (None, 1, 128)       0           dense_17[0][0]                   
INFO:Reinforcement.Functions:                                                                 activation_14[0][0]              
INFO:Reinforcement.Functions:__________________________________________________________________________________________________
INFO:Reinforcement.Functions:activation_16 (Activation)      (None, 1, 128)       0           add_8[0][0]                      
INFO:Reinforcement.Functions:__________________________________________________________________________________________________
INFO:Reinforcement.Functions:dense_18 (Dense)                (None, 1, 128)       16512       activation_16[0][0]              
INFO:Reinforcement.Functions:__________________________________________________________________________________________________
INFO:Reinforcement.Functions:activation_17 (Activation)      (None, 1, 128)       0           dense_18[0][0]                   
INFO:Reinforcement.Functions:__________________________________________________________________________________________________
INFO:Reinforcement.Functions:dense_19 (Dense)                (None, 1, 128)       16512       activation_17[0][0]              
INFO:Reinforcement.Functions:__________________________________________________________________________________________________
INFO:Reinforcement.Functions:add_9 (Add)                     (None, 1, 128)       0           dense_19[0][0]                   
INFO:Reinforcement.Functions:                                                                 activation_16[0][0]              
INFO:Reinforcement.Functions:__________________________________________________________________________________________________
INFO:Reinforcement.Functions:activation_18 (Activation)      (None, 1, 128)       0           add_9[0][0]                      
INFO:Reinforcement.Functions:__________________________________________________________________________________________________
INFO:Reinforcement.Functions:dense_20 (Dense)                (None, 1, 128)       16512       activation_18[0][0]              
INFO:Reinforcement.Functions:__________________________________________________________________________________________________
INFO:Reinforcement.Functions:activation_19 (Activation)      (None, 1, 128)       0           dense_20[0][0]                   
INFO:Reinforcement.Functions:__________________________________________________________________________________________________
INFO:Reinforcement.Functions:dense_21 (Dense)                (None, 1, 128)       16512       activation_19[0][0]              
INFO:Reinforcement.Functions:__________________________________________________________________________________________________
INFO:Reinforcement.Functions:add_10 (Add)                    (None, 1, 128)       0           dense_21[0][0]                   
INFO:Reinforcement.Functions:                                                                 activation_18[0][0]              
INFO:Reinforcement.Functions:__________________________________________________________________________________________________
INFO:Reinforcement.Functions:activation_20 (Activation)      (None, 1, 128)       0           add_10[0][0]                     
INFO:Reinforcement.Functions:__________________________________________________________________________________________________
INFO:Reinforcement.Functions:dense_22 (Dense)                (None, 1, 128)       16512       activation_20[0][0]              
INFO:Reinforcement.Functions:__________________________________________________________________________________________________
INFO:Reinforcement.Functions:activation_21 (Activation)      (None, 1, 128)       0           dense_22[0][0]                   
INFO:Reinforcement.Functions:__________________________________________________________________________________________________
INFO:Reinforcement.Functions:dense_23 (Dense)                (None, 1, 128)       16512       activation_21[0][0]              
INFO:Reinforcement.Functions:__________________________________________________________________________________________________
INFO:Reinforcement.Functions:add_11 (Add)                    (None, 1, 128)       0           dense_23[0][0]                   
INFO:Reinforcement.Functions:                                                                 activation_20[0][0]              
INFO:Reinforcement.Functions:__________________________________________________________________________________________________
INFO:Reinforcement.Functions:activation_22 (Activation)      (None, 1, 128)       0           add_11[0][0]                     
INFO:Reinforcement.Functions:__________________________________________________________________________________________________
INFO:Reinforcement.Functions:dense_24 (Dense)                (None, 1, 128)       16512       activation_22[0][0]              
INFO:Reinforcement.Functions:__________________________________________________________________________________________________
INFO:Reinforcement.Functions:activation_23 (Activation)      (None, 1, 128)       0           dense_24[0][0]                   
INFO:Reinforcement.Functions:__________________________________________________________________________________________________
INFO:Reinforcement.Functions:dense_25 (Dense)                (None, 1, 128)       16512       activation_23[0][0]              
INFO:Reinforcement.Functions:__________________________________________________________________________________________________
INFO:Reinforcement.Functions:add_12 (Add)                    (None, 1, 128)       0           dense_25[0][0]                   
INFO:Reinforcement.Functions:                                                                 activation_22[0][0]              
INFO:Reinforcement.Functions:__________________________________________________________________________________________________
INFO:Reinforcement.Functions:activation_24 (Activation)      (None, 1, 128)       0           add_12[0][0]                     
INFO:Reinforcement.Functions:__________________________________________________________________________________________________
INFO:Reinforcement.Functions:dense_26 (Dense)                (None, 1, 128)       16512       activation_24[0][0]              
INFO:Reinforcement.Functions:__________________________________________________________________________________________________
INFO:Reinforcement.Functions:activation_25 (Activation)      (None, 1, 128)       0           dense_26[0][0]                   
INFO:Reinforcement.Functions:__________________________________________________________________________________________________
INFO:Reinforcement.Functions:dense_27 (Dense)                (None, 1, 128)       16512       activation_25[0][0]              
INFO:Reinforcement.Functions:__________________________________________________________________________________________________
INFO:Reinforcement.Functions:add_13 (Add)                    (None, 1, 128)       0           dense_27[0][0]                   
INFO:Reinforcement.Functions:                                                                 activation_24[0][0]              
INFO:Reinforcement.Functions:__________________________________________________________________________________________________
INFO:Reinforcement.Functions:activation_26 (Activation)      (None, 1, 128)       0           add_13[0][0]                     
INFO:Reinforcement.Functions:__________________________________________________________________________________________________
INFO:Reinforcement.Functions:dense_28 (Dense)                (None, 1, 128)       16512       activation_26[0][0]              
INFO:Reinforcement.Functions:__________________________________________________________________________________________________
INFO:Reinforcement.Functions:activation_27 (Activation)      (None, 1, 128)       0           dense_28[0][0]                   
INFO:Reinforcement.Functions:__________________________________________________________________________________________________
INFO:Reinforcement.Functions:dense_29 (Dense)                (None, 1, 128)       16512       activation_27[0][0]              
INFO:Reinforcement.Functions:__________________________________________________________________________________________________
INFO:Reinforcement.Functions:add_14 (Add)                    (None, 1, 128)       0           dense_29[0][0]                   
INFO:Reinforcement.Functions:                                                                 activation_26[0][0]              
INFO:Reinforcement.Functions:__________________________________________________________________________________________________
INFO:Reinforcement.Functions:activation_28 (Activation)      (None, 1, 128)       0           add_14[0][0]                     
INFO:Reinforcement.Functions:__________________________________________________________________________________________________
INFO:Reinforcement.Functions:dense_30 (Dense)                (None, 1, 128)       16512       activation_28[0][0]              
INFO:Reinforcement.Functions:__________________________________________________________________________________________________
INFO:Reinforcement.Functions:activation_29 (Activation)      (None, 1, 128)       0           dense_30[0][0]                   
INFO:Reinforcement.Functions:__________________________________________________________________________________________________
INFO:Reinforcement.Functions:dense_31 (Dense)                (None, 1, 128)       16512       activation_29[0][0]              
INFO:Reinforcement.Functions:__________________________________________________________________________________________________
INFO:Reinforcement.Functions:add_15 (Add)                    (None, 1, 128)       0           dense_31[0][0]                   
INFO:Reinforcement.Functions:                                                                 activation_28[0][0]              
INFO:Reinforcement.Functions:__________________________________________________________________________________________________
INFO:Reinforcement.Functions:activation_30 (Activation)      (None, 1, 128)       0           add_15[0][0]                     
INFO:Reinforcement.Functions:__________________________________________________________________________________________________
INFO:Reinforcement.Functions:dense_32 (Dense)                (None, 1, 128)       16512       activation_30[0][0]              
INFO:Reinforcement.Functions:__________________________________________________________________________________________________
INFO:Reinforcement.Functions:activation_31 (Activation)      (None, 1, 128)       0           dense_32[0][0]                   
INFO:Reinforcement.Functions:__________________________________________________________________________________________________
INFO:Reinforcement.Functions:dense_33 (Dense)                (None, 1, 128)       16512       activation_31[0][0]              
INFO:Reinforcement.Functions:__________________________________________________________________________________________________
INFO:Reinforcement.Functions:add_16 (Add)                    (None, 1, 128)       0           dense_33[0][0]                   
INFO:Reinforcement.Functions:                                                                 activation_30[0][0]              
INFO:Reinforcement.Functions:__________________________________________________________________________________________________
INFO:Reinforcement.Functions:activation_32 (Activation)      (None, 1, 128)       0           add_16[0][0]                     
INFO:Reinforcement.Functions:__________________________________________________________________________________________________
INFO:Reinforcement.Functions:dense_34 (Dense)                (None, 1, 128)       16512       activation_32[0][0]              
INFO:Reinforcement.Functions:__________________________________________________________________________________________________
INFO:Reinforcement.Functions:activation_33 (Activation)      (None, 1, 128)       0           dense_34[0][0]                   
INFO:Reinforcement.Functions:__________________________________________________________________________________________________
INFO:Reinforcement.Functions:dense_35 (Dense)                (None, 1, 128)       16512       activation_33[0][0]              
INFO:Reinforcement.Functions:__________________________________________________________________________________________________
INFO:Reinforcement.Functions:add_17 (Add)                    (None, 1, 128)       0           dense_35[0][0]                   
INFO:Reinforcement.Functions:                                                                 activation_32[0][0]              
INFO:Reinforcement.Functions:__________________________________________________________________________________________________
INFO:Reinforcement.Functions:activation_34 (Activation)      (None, 1, 128)       0           add_17[0][0]                     
INFO:Reinforcement.Functions:__________________________________________________________________________________________________
INFO:Reinforcement.Functions:dense_36 (Dense)                (None, 1, 128)       16512       activation_34[0][0]              
INFO:Reinforcement.Functions:__________________________________________________________________________________________________
INFO:Reinforcement.Functions:activation_35 (Activation)      (None, 1, 128)       0           dense_36[0][0]                   
INFO:Reinforcement.Functions:__________________________________________________________________________________________________
INFO:Reinforcement.Functions:dense_37 (Dense)                (None, 1, 128)       16512       activation_35[0][0]              
INFO:Reinforcement.Functions:__________________________________________________________________________________________________
INFO:Reinforcement.Functions:add_18 (Add)                    (None, 1, 128)       0           dense_37[0][0]                   
INFO:Reinforcement.Functions:                                                                 activation_34[0][0]              
INFO:Reinforcement.Functions:__________________________________________________________________________________________________
INFO:Reinforcement.Functions:activation_36 (Activation)      (None, 1, 128)       0           add_18[0][0]                     
INFO:Reinforcement.Functions:__________________________________________________________________________________________________
INFO:Reinforcement.Functions:dense_38 (Dense)                (None, 1, 128)       16512       activation_36[0][0]              
INFO:Reinforcement.Functions:__________________________________________________________________________________________________
INFO:Reinforcement.Functions:activation_37 (Activation)      (None, 1, 128)       0           dense_38[0][0]                   
INFO:Reinforcement.Functions:__________________________________________________________________________________________________
INFO:Reinforcement.Functions:dense_39 (Dense)                (None, 1, 128)       16512       activation_37[0][0]              
INFO:Reinforcement.Functions:__________________________________________________________________________________________________
INFO:Reinforcement.Functions:add_19 (Add)                    (None, 1, 128)       0           dense_39[0][0]                   
INFO:Reinforcement.Functions:                                                                 activation_36[0][0]              
INFO:Reinforcement.Functions:__________________________________________________________________________________________________
INFO:Reinforcement.Functions:activation_38 (Activation)      (None, 1, 128)       0           add_19[0][0]                     
INFO:Reinforcement.Functions:__________________________________________________________________________________________________
INFO:Reinforcement.Functions:dense_40 (Dense)                (None, 1, 128)       16512       activation_38[0][0]              
INFO:Reinforcement.Functions:__________________________________________________________________________________________________
INFO:Reinforcement.Functions:activation_39 (Activation)      (None, 1, 128)       0           dense_40[0][0]                   
INFO:Reinforcement.Functions:__________________________________________________________________________________________________
INFO:Reinforcement.Functions:dense_41 (Dense)                (None, 1, 128)       16512       activation_39[0][0]              
INFO:Reinforcement.Functions:__________________________________________________________________________________________________
INFO:Reinforcement.Functions:add_20 (Add)                    (None, 1, 128)       0           dense_41[0][0]                   
INFO:Reinforcement.Functions:                                                                 activation_38[0][0]              
INFO:Reinforcement.Functions:__________________________________________________________________________________________________
INFO:Reinforcement.Functions:activation_40 (Activation)      (None, 1, 128)       0           add_20[0][0]                     
INFO:Reinforcement.Functions:__________________________________________________________________________________________________
INFO:Reinforcement.Functions:dense_42 (Dense)                (None, 1, 128)       16512       activation_40[0][0]              
INFO:Reinforcement.Functions:__________________________________________________________________________________________________
INFO:Reinforcement.Functions:activation_41 (Activation)      (None, 1, 128)       0           dense_42[0][0]                   
INFO:Reinforcement.Functions:__________________________________________________________________________________________________
INFO:Reinforcement.Functions:dense_43 (Dense)                (None, 1, 128)       16512       activation_41[0][0]              
INFO:Reinforcement.Functions:__________________________________________________________________________________________________
INFO:Reinforcement.Functions:add_21 (Add)                    (None, 1, 128)       0           dense_43[0][0]                   
INFO:Reinforcement.Functions:                                                                 activation_40[0][0]              
INFO:Reinforcement.Functions:__________________________________________________________________________________________________
INFO:Reinforcement.Functions:activation_42 (Activation)      (None, 1, 128)       0           add_21[0][0]                     
INFO:Reinforcement.Functions:__________________________________________________________________________________________________
INFO:Reinforcement.Functions:dense_44 (Dense)                (None, 1, 128)       16512       activation_42[0][0]              
INFO:Reinforcement.Functions:__________________________________________________________________________________________________
INFO:Reinforcement.Functions:activation_43 (Activation)      (None, 1, 128)       0           dense_44[0][0]                   
INFO:Reinforcement.Functions:__________________________________________________________________________________________________
INFO:Reinforcement.Functions:dense_45 (Dense)                (None, 1, 128)       16512       activation_43[0][0]              
INFO:Reinforcement.Functions:__________________________________________________________________________________________________
INFO:Reinforcement.Functions:add_22 (Add)                    (None, 1, 128)       0           dense_45[0][0]                   
INFO:Reinforcement.Functions:                                                                 activation_42[0][0]              
INFO:Reinforcement.Functions:__________________________________________________________________________________________________
INFO:Reinforcement.Functions:activation_44 (Activation)      (None, 1, 128)       0           add_22[0][0]                     
INFO:Reinforcement.Functions:__________________________________________________________________________________________________
INFO:Reinforcement.Functions:dense_46 (Dense)                (None, 1, 128)       16512       activation_44[0][0]              
INFO:Reinforcement.Functions:__________________________________________________________________________________________________
INFO:Reinforcement.Functions:activation_45 (Activation)      (None, 1, 128)       0           dense_46[0][0]                   
INFO:Reinforcement.Functions:__________________________________________________________________________________________________
INFO:Reinforcement.Functions:dense_47 (Dense)                (None, 1, 128)       16512       activation_45[0][0]              
INFO:Reinforcement.Functions:__________________________________________________________________________________________________
INFO:Reinforcement.Functions:add_23 (Add)                    (None, 1, 128)       0           dense_47[0][0]                   
INFO:Reinforcement.Functions:                                                                 activation_44[0][0]              
INFO:Reinforcement.Functions:__________________________________________________________________________________________________
INFO:Reinforcement.Functions:activation_46 (Activation)      (None, 1, 128)       0           add_23[0][0]                     
INFO:Reinforcement.Functions:__________________________________________________________________________________________________
INFO:Reinforcement.Functions:dense_48 (Dense)                (None, 1, 128)       16512       activation_46[0][0]              
INFO:Reinforcement.Functions:__________________________________________________________________________________________________
INFO:Reinforcement.Functions:activation_47 (Activation)      (None, 1, 128)       0           dense_48[0][0]                   
INFO:Reinforcement.Functions:__________________________________________________________________________________________________
INFO:Reinforcement.Functions:dense_49 (Dense)                (None, 1, 128)       16512       activation_47[0][0]              
INFO:Reinforcement.Functions:__________________________________________________________________________________________________
INFO:Reinforcement.Functions:add_24 (Add)                    (None, 1, 128)       0           dense_49[0][0]                   
INFO:Reinforcement.Functions:                                                                 activation_46[0][0]              
INFO:Reinforcement.Functions:__________________________________________________________________________________________________
INFO:Reinforcement.Functions:activation_48 (Activation)      (None, 1, 128)       0           add_24[0][0]                     
INFO:Reinforcement.Functions:__________________________________________________________________________________________________
INFO:Reinforcement.Functions:dense_50 (Dense)                (None, 1, 128)       16512       activation_48[0][0]              
INFO:Reinforcement.Functions:__________________________________________________________________________________________________
INFO:Reinforcement.Functions:activation_49 (Activation)      (None, 1, 128)       0           dense_50[0][0]                   
INFO:Reinforcement.Functions:__________________________________________________________________________________________________
INFO:Reinforcement.Functions:dense_51 (Dense)                (None, 1, 128)       16512       activation_49[0][0]              
INFO:Reinforcement.Functions:__________________________________________________________________________________________________
INFO:Reinforcement.Functions:add_25 (Add)                    (None, 1, 128)       0           dense_51[0][0]                   
INFO:Reinforcement.Functions:                                                                 activation_48[0][0]              
INFO:Reinforcement.Functions:__________________________________________________________________________________________________
INFO:Reinforcement.Functions:activation_50 (Activation)      (None, 1, 128)       0           add_25[0][0]                     
INFO:Reinforcement.Functions:__________________________________________________________________________________________________
INFO:Reinforcement.Functions:dense_52 (Dense)                (None, 1, 128)       16512       activation_50[0][0]              
INFO:Reinforcement.Functions:__________________________________________________________________________________________________
INFO:Reinforcement.Functions:activation_51 (Activation)      (None, 1, 128)       0           dense_52[0][0]                   
INFO:Reinforcement.Functions:__________________________________________________________________________________________________
INFO:Reinforcement.Functions:dense_53 (Dense)                (None, 1, 128)       16512       activation_51[0][0]              
INFO:Reinforcement.Functions:__________________________________________________________________________________________________
INFO:Reinforcement.Functions:add_26 (Add)                    (None, 1, 128)       0           dense_53[0][0]                   
INFO:Reinforcement.Functions:                                                                 activation_50[0][0]              
INFO:Reinforcement.Functions:__________________________________________________________________________________________________
INFO:Reinforcement.Functions:activation_52 (Activation)      (None, 1, 128)       0           add_26[0][0]                     
INFO:Reinforcement.Functions:__________________________________________________________________________________________________
INFO:Reinforcement.Functions:dense_54 (Dense)                (None, 1, 128)       16512       activation_52[0][0]              
INFO:Reinforcement.Functions:__________________________________________________________________________________________________
INFO:Reinforcement.Functions:activation_53 (Activation)      (None, 1, 128)       0           dense_54[0][0]                   
INFO:Reinforcement.Functions:__________________________________________________________________________________________________
INFO:Reinforcement.Functions:dense_55 (Dense)                (None, 1, 128)       16512       activation_53[0][0]              
INFO:Reinforcement.Functions:__________________________________________________________________________________________________
INFO:Reinforcement.Functions:add_27 (Add)                    (None, 1, 128)       0           dense_55[0][0]                   
INFO:Reinforcement.Functions:                                                                 activation_52[0][0]              
INFO:Reinforcement.Functions:__________________________________________________________________________________________________
INFO:Reinforcement.Functions:activation_54 (Activation)      (None, 1, 128)       0           add_27[0][0]                     
INFO:Reinforcement.Functions:__________________________________________________________________________________________________
INFO:Reinforcement.Functions:dense_56 (Dense)                (None, 1, 128)       16512       activation_54[0][0]              
INFO:Reinforcement.Functions:__________________________________________________________________________________________________
INFO:Reinforcement.Functions:activation_55 (Activation)      (None, 1, 128)       0           dense_56[0][0]                   
INFO:Reinforcement.Functions:__________________________________________________________________________________________________
INFO:Reinforcement.Functions:dense_57 (Dense)                (None, 1, 128)       16512       activation_55[0][0]              
INFO:Reinforcement.Functions:__________________________________________________________________________________________________
INFO:Reinforcement.Functions:add_28 (Add)                    (None, 1, 128)       0           dense_57[0][0]                   
INFO:Reinforcement.Functions:                                                                 activation_54[0][0]              
INFO:Reinforcement.Functions:__________________________________________________________________________________________________
INFO:Reinforcement.Functions:activation_56 (Activation)      (None, 1, 128)       0           add_28[0][0]                     
INFO:Reinforcement.Functions:__________________________________________________________________________________________________
INFO:Reinforcement.Functions:dense_58 (Dense)                (None, 1, 128)       16512       activation_56[0][0]              
INFO:Reinforcement.Functions:__________________________________________________________________________________________________
INFO:Reinforcement.Functions:activation_57 (Activation)      (None, 1, 128)       0           dense_58[0][0]                   
INFO:Reinforcement.Functions:__________________________________________________________________________________________________
INFO:Reinforcement.Functions:dense_59 (Dense)                (None, 1, 128)       16512       activation_57[0][0]              
INFO:Reinforcement.Functions:__________________________________________________________________________________________________
INFO:Reinforcement.Functions:add_29 (Add)                    (None, 1, 128)       0           dense_59[0][0]                   
INFO:Reinforcement.Functions:                                                                 activation_56[0][0]              
INFO:Reinforcement.Functions:__________________________________________________________________________________________________
INFO:Reinforcement.Functions:activation_58 (Activation)      (None, 1, 128)       0           add_29[0][0]                     
INFO:Reinforcement.Functions:__________________________________________________________________________________________________
INFO:Reinforcement.Functions:dense_60 (Dense)                (None, 1, 128)       16512       activation_58[0][0]              
INFO:Reinforcement.Functions:__________________________________________________________________________________________________
INFO:Reinforcement.Functions:activation_59 (Activation)      (None, 1, 128)       0           dense_60[0][0]                   
INFO:Reinforcement.Functions:__________________________________________________________________________________________________
INFO:Reinforcement.Functions:dense_61 (Dense)                (None, 1, 128)       16512       activation_59[0][0]              
INFO:Reinforcement.Functions:__________________________________________________________________________________________________
INFO:Reinforcement.Functions:add_30 (Add)                    (None, 1, 128)       0           dense_61[0][0]                   
INFO:Reinforcement.Functions:                                                                 activation_58[0][0]              
INFO:Reinforcement.Functions:__________________________________________________________________________________________________
INFO:Reinforcement.Functions:activation_60 (Activation)      (None, 1, 128)       0           add_30[0][0]                     
INFO:Reinforcement.Functions:__________________________________________________________________________________________________
INFO:Reinforcement.Functions:dense_62 (Dense)                (None, 1, 128)       16512       activation_60[0][0]              
INFO:Reinforcement.Functions:__________________________________________________________________________________________________
INFO:Reinforcement.Functions:activation_61 (Activation)      (None, 1, 128)       0           dense_62[0][0]                   
INFO:Reinforcement.Functions:__________________________________________________________________________________________________
INFO:Reinforcement.Functions:dense_63 (Dense)                (None, 1, 128)       16512       activation_61[0][0]              
INFO:Reinforcement.Functions:__________________________________________________________________________________________________
INFO:Reinforcement.Functions:add_31 (Add)                    (None, 1, 128)       0           dense_63[0][0]                   
INFO:Reinforcement.Functions:                                                                 activation_60[0][0]              
INFO:Reinforcement.Functions:__________________________________________________________________________________________________
INFO:Reinforcement.Functions:activation_62 (Activation)      (None, 1, 128)       0           add_31[0][0]                     
INFO:Reinforcement.Functions:__________________________________________________________________________________________________
INFO:Reinforcement.Functions:dense_64 (Dense)                (None, 1, 128)       16512       activation_62[0][0]              
INFO:Reinforcement.Functions:__________________________________________________________________________________________________
INFO:Reinforcement.Functions:activation_63 (Activation)      (None, 1, 128)       0           dense_64[0][0]                   
INFO:Reinforcement.Functions:__________________________________________________________________________________________________
INFO:Reinforcement.Functions:dense_65 (Dense)                (None, 1, 128)       16512       activation_63[0][0]              
INFO:Reinforcement.Functions:__________________________________________________________________________________________________
INFO:Reinforcement.Functions:add_32 (Add)                    (None, 1, 128)       0           dense_65[0][0]                   
INFO:Reinforcement.Functions:                                                                 activation_62[0][0]              
INFO:Reinforcement.Functions:__________________________________________________________________________________________________
INFO:Reinforcement.Functions:activation_64 (Activation)      (None, 1, 128)       0           add_32[0][0]                     
INFO:Reinforcement.Functions:__________________________________________________________________________________________________
INFO:Reinforcement.Functions:dense_66 (Dense)                (None, 1, 128)       16512       activation_64[0][0]              
INFO:Reinforcement.Functions:__________________________________________________________________________________________________
INFO:Reinforcement.Functions:activation_65 (Activation)      (None, 1, 128)       0           dense_66[0][0]                   
INFO:Reinforcement.Functions:__________________________________________________________________________________________________
INFO:Reinforcement.Functions:dense_67 (Dense)                (None, 1, 128)       16512       activation_65[0][0]              
INFO:Reinforcement.Functions:__________________________________________________________________________________________________
INFO:Reinforcement.Functions:add_33 (Add)                    (None, 1, 128)       0           dense_67[0][0]                   
INFO:Reinforcement.Functions:                                                                 activation_64[0][0]              
INFO:Reinforcement.Functions:__________________________________________________________________________________________________
INFO:Reinforcement.Functions:activation_66 (Activation)      (None, 1, 128)       0           add_33[0][0]                     
INFO:Reinforcement.Functions:__________________________________________________________________________________________________
INFO:Reinforcement.Functions:dense_68 (Dense)                (None, 1, 5)         645         activation_66[0][0]              
INFO:Reinforcement.Functions:__________________________________________________________________________________________________
INFO:Reinforcement.Functions:reshape_1 (Reshape)             (None, 5)            0           dense_68[0][0]                   
INFO:Reinforcement.Functions:==================================================================================================
INFO:Reinforcement.Functions:Total params: 1,076,229
INFO:Reinforcement.Functions:Trainable params: 1,076,229
INFO:Reinforcement.Functions:Non-trainable params: 0
INFO:Reinforcement.Functions:__________________________________________________________________________________________________
INFO:Reinforcement.Functions:[Critic] model architecture:
INFO:Reinforcement.Functions:__________________________________________________________________________________________________
INFO:Reinforcement.Functions:Layer (type)                    Output Shape         Param #     Connected to                     
INFO:Reinforcement.Functions:==================================================================================================
INFO:Reinforcement.Functions:input_2 (InputLayer)            (None, 1, 8)         0                                            
INFO:Reinforcement.Functions:__________________________________________________________________________________________________
INFO:Reinforcement.Functions:dense_70 (Dense)                (None, 1, 128)       1152        input_2[0][0]                    
INFO:Reinforcement.Functions:__________________________________________________________________________________________________
INFO:Reinforcement.Functions:activation_67 (Activation)      (None, 1, 128)       0           dense_70[0][0]                   
INFO:Reinforcement.Functions:__________________________________________________________________________________________________
INFO:Reinforcement.Functions:dense_71 (Dense)                (None, 1, 128)       16512       activation_67[0][0]              
INFO:Reinforcement.Functions:__________________________________________________________________________________________________
INFO:Reinforcement.Functions:dense_69 (Dense)                (None, 1, 128)       1152        input_2[0][0]                    
INFO:Reinforcement.Functions:__________________________________________________________________________________________________
INFO:Reinforcement.Functions:add_34 (Add)                    (None, 1, 128)       0           dense_71[0][0]                   
INFO:Reinforcement.Functions:                                                                 dense_69[0][0]                   
INFO:Reinforcement.Functions:__________________________________________________________________________________________________
INFO:Reinforcement.Functions:input_3 (InputLayer)            (None, 5)            0                                            
INFO:Reinforcement.Functions:__________________________________________________________________________________________________
INFO:Reinforcement.Functions:activation_68 (Activation)      (None, 1, 128)       0           add_34[0][0]                     
INFO:Reinforcement.Functions:__________________________________________________________________________________________________
INFO:Reinforcement.Functions:dense_72 (Dense)                (None, 128)          768         input_3[0][0]                    
INFO:Reinforcement.Functions:__________________________________________________________________________________________________
INFO:Reinforcement.Functions:add_35 (Add)                    (None, 1, 128)       0           activation_68[0][0]              
INFO:Reinforcement.Functions:                                                                 dense_72[0][0]                   
INFO:Reinforcement.Functions:__________________________________________________________________________________________________
INFO:Reinforcement.Functions:activation_69 (Activation)      (None, 1, 128)       0           add_35[0][0]                     
INFO:Reinforcement.Functions:__________________________________________________________________________________________________
INFO:Reinforcement.Functions:dense_73 (Dense)                (None, 1, 128)       16512       activation_69[0][0]              
INFO:Reinforcement.Functions:__________________________________________________________________________________________________
INFO:Reinforcement.Functions:activation_70 (Activation)      (None, 1, 128)       0           dense_73[0][0]                   
INFO:Reinforcement.Functions:__________________________________________________________________________________________________
INFO:Reinforcement.Functions:dense_74 (Dense)                (None, 1, 128)       16512       activation_70[0][0]              
INFO:Reinforcement.Functions:__________________________________________________________________________________________________
INFO:Reinforcement.Functions:add_36 (Add)                    (None, 1, 128)       0           dense_74[0][0]                   
INFO:Reinforcement.Functions:                                                                 activation_69[0][0]              
INFO:Reinforcement.Functions:__________________________________________________________________________________________________
INFO:Reinforcement.Functions:activation_71 (Activation)      (None, 1, 128)       0           add_36[0][0]                     
INFO:Reinforcement.Functions:__________________________________________________________________________________________________
INFO:Reinforcement.Functions:dense_75 (Dense)                (None, 1, 128)       16512       activation_71[0][0]              
INFO:Reinforcement.Functions:__________________________________________________________________________________________________
INFO:Reinforcement.Functions:activation_72 (Activation)      (None, 1, 128)       0           dense_75[0][0]                   
INFO:Reinforcement.Functions:__________________________________________________________________________________________________
INFO:Reinforcement.Functions:dense_76 (Dense)                (None, 1, 128)       16512       activation_72[0][0]              
INFO:Reinforcement.Functions:__________________________________________________________________________________________________
INFO:Reinforcement.Functions:add_37 (Add)                    (None, 1, 128)       0           dense_76[0][0]                   
INFO:Reinforcement.Functions:                                                                 activation_71[0][0]              
INFO:Reinforcement.Functions:__________________________________________________________________________________________________
INFO:Reinforcement.Functions:activation_73 (Activation)      (None, 1, 128)       0           add_37[0][0]                     
INFO:Reinforcement.Functions:__________________________________________________________________________________________________
INFO:Reinforcement.Functions:dense_77 (Dense)                (None, 1, 128)       16512       activation_73[0][0]              
INFO:Reinforcement.Functions:__________________________________________________________________________________________________
INFO:Reinforcement.Functions:activation_74 (Activation)      (None, 1, 128)       0           dense_77[0][0]                   
INFO:Reinforcement.Functions:__________________________________________________________________________________________________
INFO:Reinforcement.Functions:dense_78 (Dense)                (None, 1, 128)       16512       activation_74[0][0]              
INFO:Reinforcement.Functions:__________________________________________________________________________________________________
INFO:Reinforcement.Functions:add_38 (Add)                    (None, 1, 128)       0           dense_78[0][0]                   
INFO:Reinforcement.Functions:                                                                 activation_73[0][0]              
INFO:Reinforcement.Functions:__________________________________________________________________________________________________
INFO:Reinforcement.Functions:activation_75 (Activation)      (None, 1, 128)       0           add_38[0][0]                     
INFO:Reinforcement.Functions:__________________________________________________________________________________________________
INFO:Reinforcement.Functions:dense_79 (Dense)                (None, 1, 128)       16512       activation_75[0][0]              
INFO:Reinforcement.Functions:__________________________________________________________________________________________________
INFO:Reinforcement.Functions:activation_76 (Activation)      (None, 1, 128)       0           dense_79[0][0]                   
INFO:Reinforcement.Functions:__________________________________________________________________________________________________
INFO:Reinforcement.Functions:dense_80 (Dense)                (None, 1, 128)       16512       activation_76[0][0]              
INFO:Reinforcement.Functions:__________________________________________________________________________________________________
INFO:Reinforcement.Functions:add_39 (Add)                    (None, 1, 128)       0           dense_80[0][0]                   
INFO:Reinforcement.Functions:                                                                 activation_75[0][0]              
INFO:Reinforcement.Functions:__________________________________________________________________________________________________
INFO:Reinforcement.Functions:activation_77 (Activation)      (None, 1, 128)       0           add_39[0][0]                     
INFO:Reinforcement.Functions:__________________________________________________________________________________________________
INFO:Reinforcement.Functions:dense_81 (Dense)                (None, 1, 128)       16512       activation_77[0][0]              
INFO:Reinforcement.Functions:__________________________________________________________________________________________________
INFO:Reinforcement.Functions:activation_78 (Activation)      (None, 1, 128)       0           dense_81[0][0]                   
INFO:Reinforcement.Functions:__________________________________________________________________________________________________
INFO:Reinforcement.Functions:dense_82 (Dense)                (None, 1, 128)       16512       activation_78[0][0]              
INFO:Reinforcement.Functions:__________________________________________________________________________________________________
INFO:Reinforcement.Functions:add_40 (Add)                    (None, 1, 128)       0           dense_82[0][0]                   
INFO:Reinforcement.Functions:                                                                 activation_77[0][0]              
INFO:Reinforcement.Functions:__________________________________________________________________________________________________
INFO:Reinforcement.Functions:activation_79 (Activation)      (None, 1, 128)       0           add_40[0][0]                     
INFO:Reinforcement.Functions:__________________________________________________________________________________________________
INFO:Reinforcement.Functions:dense_83 (Dense)                (None, 1, 128)       16512       activation_79[0][0]              
INFO:Reinforcement.Functions:__________________________________________________________________________________________________
INFO:Reinforcement.Functions:activation_80 (Activation)      (None, 1, 128)       0           dense_83[0][0]                   
INFO:Reinforcement.Functions:__________________________________________________________________________________________________
INFO:Reinforcement.Functions:dense_84 (Dense)                (None, 1, 128)       16512       activation_80[0][0]              
INFO:Reinforcement.Functions:__________________________________________________________________________________________________
INFO:Reinforcement.Functions:add_41 (Add)                    (None, 1, 128)       0           dense_84[0][0]                   
INFO:Reinforcement.Functions:                                                                 activation_79[0][0]              
INFO:Reinforcement.Functions:__________________________________________________________________________________________________
INFO:Reinforcement.Functions:activation_81 (Activation)      (None, 1, 128)       0           add_41[0][0]                     
INFO:Reinforcement.Functions:__________________________________________________________________________________________________
INFO:Reinforcement.Functions:dense_85 (Dense)                (None, 1, 128)       16512       activation_81[0][0]              
INFO:Reinforcement.Functions:__________________________________________________________________________________________________
INFO:Reinforcement.Functions:activation_82 (Activation)      (None, 1, 128)       0           dense_85[0][0]                   
INFO:Reinforcement.Functions:__________________________________________________________________________________________________
INFO:Reinforcement.Functions:dense_86 (Dense)                (None, 1, 128)       16512       activation_82[0][0]              
INFO:Reinforcement.Functions:__________________________________________________________________________________________________
INFO:Reinforcement.Functions:add_42 (Add)                    (None, 1, 128)       0           dense_86[0][0]                   
INFO:Reinforcement.Functions:                                                                 activation_81[0][0]              
INFO:Reinforcement.Functions:__________________________________________________________________________________________________
INFO:Reinforcement.Functions:activation_83 (Activation)      (None, 1, 128)       0           add_42[0][0]                     
INFO:Reinforcement.Functions:__________________________________________________________________________________________________
INFO:Reinforcement.Functions:dense_87 (Dense)                (None, 1, 128)       16512       activation_83[0][0]              
INFO:Reinforcement.Functions:__________________________________________________________________________________________________
INFO:Reinforcement.Functions:activation_84 (Activation)      (None, 1, 128)       0           dense_87[0][0]                   
INFO:Reinforcement.Functions:__________________________________________________________________________________________________
INFO:Reinforcement.Functions:dense_88 (Dense)                (None, 1, 128)       16512       activation_84[0][0]              
INFO:Reinforcement.Functions:__________________________________________________________________________________________________
INFO:Reinforcement.Functions:add_43 (Add)                    (None, 1, 128)       0           dense_88[0][0]                   
INFO:Reinforcement.Functions:                                                                 activation_83[0][0]              
INFO:Reinforcement.Functions:__________________________________________________________________________________________________
INFO:Reinforcement.Functions:activation_85 (Activation)      (None, 1, 128)       0           add_43[0][0]                     
INFO:Reinforcement.Functions:__________________________________________________________________________________________________
INFO:Reinforcement.Functions:dense_89 (Dense)                (None, 1, 128)       16512       activation_85[0][0]              
INFO:Reinforcement.Functions:__________________________________________________________________________________________________
INFO:Reinforcement.Functions:activation_86 (Activation)      (None, 1, 128)       0           dense_89[0][0]                   
INFO:Reinforcement.Functions:__________________________________________________________________________________________________
INFO:Reinforcement.Functions:dense_90 (Dense)                (None, 1, 128)       16512       activation_86[0][0]              
INFO:Reinforcement.Functions:__________________________________________________________________________________________________
INFO:Reinforcement.Functions:add_44 (Add)                    (None, 1, 128)       0           dense_90[0][0]                   
INFO:Reinforcement.Functions:                                                                 activation_85[0][0]              
INFO:Reinforcement.Functions:__________________________________________________________________________________________________
INFO:Reinforcement.Functions:activation_87 (Activation)      (None, 1, 128)       0           add_44[0][0]                     
INFO:Reinforcement.Functions:__________________________________________________________________________________________________
INFO:Reinforcement.Functions:dense_91 (Dense)                (None, 1, 128)       16512       activation_87[0][0]              
INFO:Reinforcement.Functions:__________________________________________________________________________________________________
INFO:Reinforcement.Functions:activation_88 (Activation)      (None, 1, 128)       0           dense_91[0][0]                   
INFO:Reinforcement.Functions:__________________________________________________________________________________________________
INFO:Reinforcement.Functions:dense_92 (Dense)                (None, 1, 128)       16512       activation_88[0][0]              
INFO:Reinforcement.Functions:__________________________________________________________________________________________________
INFO:Reinforcement.Functions:add_45 (Add)                    (None, 1, 128)       0           dense_92[0][0]                   
INFO:Reinforcement.Functions:                                                                 activation_87[0][0]              
INFO:Reinforcement.Functions:__________________________________________________________________________________________________
INFO:Reinforcement.Functions:activation_89 (Activation)      (None, 1, 128)       0           add_45[0][0]                     
INFO:Reinforcement.Functions:__________________________________________________________________________________________________
INFO:Reinforcement.Functions:dense_93 (Dense)                (None, 1, 128)       16512       activation_89[0][0]              
INFO:Reinforcement.Functions:__________________________________________________________________________________________________
INFO:Reinforcement.Functions:activation_90 (Activation)      (None, 1, 128)       0           dense_93[0][0]                   
INFO:Reinforcement.Functions:__________________________________________________________________________________________________
INFO:Reinforcement.Functions:dense_94 (Dense)                (None, 1, 128)       16512       activation_90[0][0]              
INFO:Reinforcement.Functions:__________________________________________________________________________________________________
INFO:Reinforcement.Functions:add_46 (Add)                    (None, 1, 128)       0           dense_94[0][0]                   
INFO:Reinforcement.Functions:                                                                 activation_89[0][0]              
INFO:Reinforcement.Functions:__________________________________________________________________________________________________
INFO:Reinforcement.Functions:activation_91 (Activation)      (None, 1, 128)       0           add_46[0][0]                     
INFO:Reinforcement.Functions:__________________________________________________________________________________________________
INFO:Reinforcement.Functions:dense_95 (Dense)                (None, 1, 128)       16512       activation_91[0][0]              
INFO:Reinforcement.Functions:__________________________________________________________________________________________________
INFO:Reinforcement.Functions:activation_92 (Activation)      (None, 1, 128)       0           dense_95[0][0]                   
INFO:Reinforcement.Functions:__________________________________________________________________________________________________
INFO:Reinforcement.Functions:dense_96 (Dense)                (None, 1, 128)       16512       activation_92[0][0]              
INFO:Reinforcement.Functions:__________________________________________________________________________________________________
INFO:Reinforcement.Functions:add_47 (Add)                    (None, 1, 128)       0           dense_96[0][0]                   
INFO:Reinforcement.Functions:                                                                 activation_91[0][0]              
INFO:Reinforcement.Functions:__________________________________________________________________________________________________
INFO:Reinforcement.Functions:activation_93 (Activation)      (None, 1, 128)       0           add_47[0][0]                     
INFO:Reinforcement.Functions:__________________________________________________________________________________________________
INFO:Reinforcement.Functions:dense_97 (Dense)                (None, 1, 128)       16512       activation_93[0][0]              
INFO:Reinforcement.Functions:__________________________________________________________________________________________________
INFO:Reinforcement.Functions:activation_94 (Activation)      (None, 1, 128)       0           dense_97[0][0]                   
INFO:Reinforcement.Functions:__________________________________________________________________________________________________
INFO:Reinforcement.Functions:dense_98 (Dense)                (None, 1, 128)       16512       activation_94[0][0]              
INFO:Reinforcement.Functions:__________________________________________________________________________________________________
INFO:Reinforcement.Functions:add_48 (Add)                    (None, 1, 128)       0           dense_98[0][0]                   
INFO:Reinforcement.Functions:                                                                 activation_93[0][0]              
INFO:Reinforcement.Functions:__________________________________________________________________________________________________
INFO:Reinforcement.Functions:activation_95 (Activation)      (None, 1, 128)       0           add_48[0][0]                     
INFO:Reinforcement.Functions:__________________________________________________________________________________________________
INFO:Reinforcement.Functions:dense_99 (Dense)                (None, 1, 128)       16512       activation_95[0][0]              
INFO:Reinforcement.Functions:__________________________________________________________________________________________________
INFO:Reinforcement.Functions:activation_96 (Activation)      (None, 1, 128)       0           dense_99[0][0]                   
INFO:Reinforcement.Functions:__________________________________________________________________________________________________
INFO:Reinforcement.Functions:dense_100 (Dense)               (None, 1, 128)       16512       activation_96[0][0]              
INFO:Reinforcement.Functions:__________________________________________________________________________________________________
INFO:Reinforcement.Functions:add_49 (Add)                    (None, 1, 128)       0           dense_100[0][0]                  
INFO:Reinforcement.Functions:                                                                 activation_95[0][0]              
INFO:Reinforcement.Functions:__________________________________________________________________________________________________
INFO:Reinforcement.Functions:activation_97 (Activation)      (None, 1, 128)       0           add_49[0][0]                     
INFO:Reinforcement.Functions:__________________________________________________________________________________________________
INFO:Reinforcement.Functions:dense_101 (Dense)               (None, 1, 128)       16512       activation_97[0][0]              
INFO:Reinforcement.Functions:__________________________________________________________________________________________________
INFO:Reinforcement.Functions:activation_98 (Activation)      (None, 1, 128)       0           dense_101[0][0]                  
INFO:Reinforcement.Functions:__________________________________________________________________________________________________
INFO:Reinforcement.Functions:dense_102 (Dense)               (None, 1, 128)       16512       activation_98[0][0]              
INFO:Reinforcement.Functions:__________________________________________________________________________________________________
INFO:Reinforcement.Functions:add_50 (Add)                    (None, 1, 128)       0           dense_102[0][0]                  
INFO:Reinforcement.Functions:                                                                 activation_97[0][0]              
INFO:Reinforcement.Functions:__________________________________________________________________________________________________
INFO:Reinforcement.Functions:activation_99 (Activation)      (None, 1, 128)       0           add_50[0][0]                     
INFO:Reinforcement.Functions:__________________________________________________________________________________________________
INFO:Reinforcement.Functions:dense_103 (Dense)               (None, 1, 128)       16512       activation_99[0][0]              
INFO:Reinforcement.Functions:__________________________________________________________________________________________________
INFO:Reinforcement.Functions:activation_100 (Activation)     (None, 1, 128)       0           dense_103[0][0]                  
INFO:Reinforcement.Functions:__________________________________________________________________________________________________
INFO:Reinforcement.Functions:dense_104 (Dense)               (None, 1, 128)       16512       activation_100[0][0]             
INFO:Reinforcement.Functions:__________________________________________________________________________________________________
INFO:Reinforcement.Functions:add_51 (Add)                    (None, 1, 128)       0           dense_104[0][0]                  
INFO:Reinforcement.Functions:                                                                 activation_99[0][0]              
INFO:Reinforcement.Functions:__________________________________________________________________________________________________
INFO:Reinforcement.Functions:activation_101 (Activation)     (None, 1, 128)       0           add_51[0][0]                     
INFO:Reinforcement.Functions:__________________________________________________________________________________________________
INFO:Reinforcement.Functions:dense_105 (Dense)               (None, 1, 128)       16512       activation_101[0][0]             
INFO:Reinforcement.Functions:__________________________________________________________________________________________________
INFO:Reinforcement.Functions:activation_102 (Activation)     (None, 1, 128)       0           dense_105[0][0]                  
INFO:Reinforcement.Functions:__________________________________________________________________________________________________
INFO:Reinforcement.Functions:dense_106 (Dense)               (None, 1, 128)       16512       activation_102[0][0]             
INFO:Reinforcement.Functions:__________________________________________________________________________________________________
INFO:Reinforcement.Functions:add_52 (Add)                    (None, 1, 128)       0           dense_106[0][0]                  
INFO:Reinforcement.Functions:                                                                 activation_101[0][0]             
INFO:Reinforcement.Functions:__________________________________________________________________________________________________
INFO:Reinforcement.Functions:activation_103 (Activation)     (None, 1, 128)       0           add_52[0][0]                     
INFO:Reinforcement.Functions:__________________________________________________________________________________________________
INFO:Reinforcement.Functions:dense_107 (Dense)               (None, 1, 128)       16512       activation_103[0][0]             
INFO:Reinforcement.Functions:__________________________________________________________________________________________________
INFO:Reinforcement.Functions:activation_104 (Activation)     (None, 1, 128)       0           dense_107[0][0]                  
INFO:Reinforcement.Functions:__________________________________________________________________________________________________
INFO:Reinforcement.Functions:dense_108 (Dense)               (None, 1, 128)       16512       activation_104[0][0]             
INFO:Reinforcement.Functions:__________________________________________________________________________________________________
INFO:Reinforcement.Functions:add_53 (Add)                    (None, 1, 128)       0           dense_108[0][0]                  
INFO:Reinforcement.Functions:                                                                 activation_103[0][0]             
INFO:Reinforcement.Functions:__________________________________________________________________________________________________
INFO:Reinforcement.Functions:activation_105 (Activation)     (None, 1, 128)       0           add_53[0][0]                     
INFO:Reinforcement.Functions:__________________________________________________________________________________________________
INFO:Reinforcement.Functions:dense_109 (Dense)               (None, 1, 128)       16512       activation_105[0][0]             
INFO:Reinforcement.Functions:__________________________________________________________________________________________________
INFO:Reinforcement.Functions:activation_106 (Activation)     (None, 1, 128)       0           dense_109[0][0]                  
INFO:Reinforcement.Functions:__________________________________________________________________________________________________
INFO:Reinforcement.Functions:dense_110 (Dense)               (None, 1, 128)       16512       activation_106[0][0]             
INFO:Reinforcement.Functions:__________________________________________________________________________________________________
INFO:Reinforcement.Functions:add_54 (Add)                    (None, 1, 128)       0           dense_110[0][0]                  
INFO:Reinforcement.Functions:                                                                 activation_105[0][0]             
INFO:Reinforcement.Functions:__________________________________________________________________________________________________
INFO:Reinforcement.Functions:activation_107 (Activation)     (None, 1, 128)       0           add_54[0][0]                     
INFO:Reinforcement.Functions:__________________________________________________________________________________________________
INFO:Reinforcement.Functions:dense_111 (Dense)               (None, 1, 128)       16512       activation_107[0][0]             
INFO:Reinforcement.Functions:__________________________________________________________________________________________________
INFO:Reinforcement.Functions:activation_108 (Activation)     (None, 1, 128)       0           dense_111[0][0]                  
INFO:Reinforcement.Functions:__________________________________________________________________________________________________
INFO:Reinforcement.Functions:dense_112 (Dense)               (None, 1, 128)       16512       activation_108[0][0]             
INFO:Reinforcement.Functions:__________________________________________________________________________________________________
INFO:Reinforcement.Functions:add_55 (Add)                    (None, 1, 128)       0           dense_112[0][0]                  
INFO:Reinforcement.Functions:                                                                 activation_107[0][0]             
INFO:Reinforcement.Functions:__________________________________________________________________________________________________
INFO:Reinforcement.Functions:activation_109 (Activation)     (None, 1, 128)       0           add_55[0][0]                     
INFO:Reinforcement.Functions:__________________________________________________________________________________________________
INFO:Reinforcement.Functions:dense_113 (Dense)               (None, 1, 128)       16512       activation_109[0][0]             
INFO:Reinforcement.Functions:__________________________________________________________________________________________________
INFO:Reinforcement.Functions:activation_110 (Activation)     (None, 1, 128)       0           dense_113[0][0]                  
INFO:Reinforcement.Functions:__________________________________________________________________________________________________
INFO:Reinforcement.Functions:dense_114 (Dense)               (None, 1, 128)       16512       activation_110[0][0]             
INFO:Reinforcement.Functions:__________________________________________________________________________________________________
INFO:Reinforcement.Functions:add_56 (Add)                    (None, 1, 128)       0           dense_114[0][0]                  
INFO:Reinforcement.Functions:                                                                 activation_109[0][0]             
INFO:Reinforcement.Functions:__________________________________________________________________________________________________
INFO:Reinforcement.Functions:activation_111 (Activation)     (None, 1, 128)       0           add_56[0][0]                     
INFO:Reinforcement.Functions:__________________________________________________________________________________________________
INFO:Reinforcement.Functions:dense_115 (Dense)               (None, 1, 128)       16512       activation_111[0][0]             
INFO:Reinforcement.Functions:__________________________________________________________________________________________________
INFO:Reinforcement.Functions:activation_112 (Activation)     (None, 1, 128)       0           dense_115[0][0]                  
INFO:Reinforcement.Functions:__________________________________________________________________________________________________
INFO:Reinforcement.Functions:dense_116 (Dense)               (None, 1, 128)       16512       activation_112[0][0]             
INFO:Reinforcement.Functions:__________________________________________________________________________________________________
INFO:Reinforcement.Functions:add_57 (Add)                    (None, 1, 128)       0           dense_116[0][0]                  
INFO:Reinforcement.Functions:                                                                 activation_111[0][0]             
INFO:Reinforcement.Functions:__________________________________________________________________________________________________
INFO:Reinforcement.Functions:activation_113 (Activation)     (None, 1, 128)       0           add_57[0][0]                     
INFO:Reinforcement.Functions:__________________________________________________________________________________________________
INFO:Reinforcement.Functions:dense_117 (Dense)               (None, 1, 128)       16512       activation_113[0][0]             
INFO:Reinforcement.Functions:__________________________________________________________________________________________________
INFO:Reinforcement.Functions:activation_114 (Activation)     (None, 1, 128)       0           dense_117[0][0]                  
INFO:Reinforcement.Functions:__________________________________________________________________________________________________
INFO:Reinforcement.Functions:dense_118 (Dense)               (None, 1, 128)       16512       activation_114[0][0]             
INFO:Reinforcement.Functions:__________________________________________________________________________________________________
INFO:Reinforcement.Functions:add_58 (Add)                    (None, 1, 128)       0           dense_118[0][0]                  
INFO:Reinforcement.Functions:                                                                 activation_113[0][0]             
INFO:Reinforcement.Functions:__________________________________________________________________________________________________
INFO:Reinforcement.Functions:activation_115 (Activation)     (None, 1, 128)       0           add_58[0][0]                     
INFO:Reinforcement.Functions:__________________________________________________________________________________________________
INFO:Reinforcement.Functions:dense_119 (Dense)               (None, 1, 128)       16512       activation_115[0][0]             
INFO:Reinforcement.Functions:__________________________________________________________________________________________________
INFO:Reinforcement.Functions:activation_116 (Activation)     (None, 1, 128)       0           dense_119[0][0]                  
INFO:Reinforcement.Functions:__________________________________________________________________________________________________
INFO:Reinforcement.Functions:dense_120 (Dense)               (None, 1, 128)       16512       activation_116[0][0]             
INFO:Reinforcement.Functions:__________________________________________________________________________________________________
INFO:Reinforcement.Functions:add_59 (Add)                    (None, 1, 128)       0           dense_120[0][0]                  
INFO:Reinforcement.Functions:                                                                 activation_115[0][0]             
INFO:Reinforcement.Functions:__________________________________________________________________________________________________
INFO:Reinforcement.Functions:activation_117 (Activation)     (None, 1, 128)       0           add_59[0][0]                     
INFO:Reinforcement.Functions:__________________________________________________________________________________________________
INFO:Reinforcement.Functions:dense_121 (Dense)               (None, 1, 128)       16512       activation_117[0][0]             
INFO:Reinforcement.Functions:__________________________________________________________________________________________________
INFO:Reinforcement.Functions:activation_118 (Activation)     (None, 1, 128)       0           dense_121[0][0]                  
INFO:Reinforcement.Functions:__________________________________________________________________________________________________
INFO:Reinforcement.Functions:dense_122 (Dense)               (None, 1, 128)       16512       activation_118[0][0]             
INFO:Reinforcement.Functions:__________________________________________________________________________________________________
INFO:Reinforcement.Functions:add_60 (Add)                    (None, 1, 128)       0           dense_122[0][0]                  
INFO:Reinforcement.Functions:                                                                 activation_117[0][0]             
INFO:Reinforcement.Functions:__________________________________________________________________________________________________
INFO:Reinforcement.Functions:activation_119 (Activation)     (None, 1, 128)       0           add_60[0][0]                     
INFO:Reinforcement.Functions:__________________________________________________________________________________________________
INFO:Reinforcement.Functions:dense_123 (Dense)               (None, 1, 128)       16512       activation_119[0][0]             
INFO:Reinforcement.Functions:__________________________________________________________________________________________________
INFO:Reinforcement.Functions:activation_120 (Activation)     (None, 1, 128)       0           dense_123[0][0]                  
INFO:Reinforcement.Functions:__________________________________________________________________________________________________
INFO:Reinforcement.Functions:dense_124 (Dense)               (None, 1, 128)       16512       activation_120[0][0]             
INFO:Reinforcement.Functions:__________________________________________________________________________________________________
INFO:Reinforcement.Functions:add_61 (Add)                    (None, 1, 128)       0           dense_124[0][0]                  
INFO:Reinforcement.Functions:                                                                 activation_119[0][0]             
INFO:Reinforcement.Functions:__________________________________________________________________________________________________
INFO:Reinforcement.Functions:activation_121 (Activation)     (None, 1, 128)       0           add_61[0][0]                     
INFO:Reinforcement.Functions:__________________________________________________________________________________________________
INFO:Reinforcement.Functions:dense_125 (Dense)               (None, 1, 128)       16512       activation_121[0][0]             
INFO:Reinforcement.Functions:__________________________________________________________________________________________________
INFO:Reinforcement.Functions:activation_122 (Activation)     (None, 1, 128)       0           dense_125[0][0]                  
INFO:Reinforcement.Functions:__________________________________________________________________________________________________
INFO:Reinforcement.Functions:dense_126 (Dense)               (None, 1, 128)       16512       activation_122[0][0]             
INFO:Reinforcement.Functions:__________________________________________________________________________________________________
INFO:Reinforcement.Functions:add_62 (Add)                    (None, 1, 128)       0           dense_126[0][0]                  
INFO:Reinforcement.Functions:                                                                 activation_121[0][0]             
INFO:Reinforcement.Functions:__________________________________________________________________________________________________
INFO:Reinforcement.Functions:activation_123 (Activation)     (None, 1, 128)       0           add_62[0][0]                     
INFO:Reinforcement.Functions:__________________________________________________________________________________________________
INFO:Reinforcement.Functions:dense_127 (Dense)               (None, 1, 128)       16512       activation_123[0][0]             
INFO:Reinforcement.Functions:__________________________________________________________________________________________________
INFO:Reinforcement.Functions:activation_124 (Activation)     (None, 1, 128)       0           dense_127[0][0]                  
INFO:Reinforcement.Functions:__________________________________________________________________________________________________
INFO:Reinforcement.Functions:dense_128 (Dense)               (None, 1, 128)       16512       activation_124[0][0]             
INFO:Reinforcement.Functions:__________________________________________________________________________________________________
INFO:Reinforcement.Functions:add_63 (Add)                    (None, 1, 128)       0           dense_128[0][0]                  
INFO:Reinforcement.Functions:                                                                 activation_123[0][0]             
INFO:Reinforcement.Functions:__________________________________________________________________________________________________
INFO:Reinforcement.Functions:activation_125 (Activation)     (None, 1, 128)       0           add_63[0][0]                     
INFO:Reinforcement.Functions:__________________________________________________________________________________________________
INFO:Reinforcement.Functions:dense_129 (Dense)               (None, 1, 128)       16512       activation_125[0][0]             
INFO:Reinforcement.Functions:__________________________________________________________________________________________________
INFO:Reinforcement.Functions:activation_126 (Activation)     (None, 1, 128)       0           dense_129[0][0]                  
INFO:Reinforcement.Functions:__________________________________________________________________________________________________
INFO:Reinforcement.Functions:dense_130 (Dense)               (None, 1, 128)       16512       activation_126[0][0]             
INFO:Reinforcement.Functions:__________________________________________________________________________________________________
INFO:Reinforcement.Functions:add_64 (Add)                    (None, 1, 128)       0           dense_130[0][0]                  
INFO:Reinforcement.Functions:                                                                 activation_125[0][0]             
INFO:Reinforcement.Functions:__________________________________________________________________________________________________
INFO:Reinforcement.Functions:activation_127 (Activation)     (None, 1, 128)       0           add_64[0][0]                     
INFO:Reinforcement.Functions:__________________________________________________________________________________________________
INFO:Reinforcement.Functions:dense_131 (Dense)               (None, 1, 128)       16512       activation_127[0][0]             
INFO:Reinforcement.Functions:__________________________________________________________________________________________________
INFO:Reinforcement.Functions:activation_128 (Activation)     (None, 1, 128)       0           dense_131[0][0]                  
INFO:Reinforcement.Functions:__________________________________________________________________________________________________
INFO:Reinforcement.Functions:dense_132 (Dense)               (None, 1, 128)       16512       activation_128[0][0]             
INFO:Reinforcement.Functions:__________________________________________________________________________________________________
INFO:Reinforcement.Functions:add_65 (Add)                    (None, 1, 128)       0           dense_132[0][0]                  
INFO:Reinforcement.Functions:                                                                 activation_127[0][0]             
INFO:Reinforcement.Functions:__________________________________________________________________________________________________
INFO:Reinforcement.Functions:activation_129 (Activation)     (None, 1, 128)       0           add_65[0][0]                     
INFO:Reinforcement.Functions:__________________________________________________________________________________________________
INFO:Reinforcement.Functions:dense_133 (Dense)               (None, 1, 128)       16512       activation_129[0][0]             
INFO:Reinforcement.Functions:__________________________________________________________________________________________________
INFO:Reinforcement.Functions:activation_130 (Activation)     (None, 1, 128)       0           dense_133[0][0]                  
INFO:Reinforcement.Functions:__________________________________________________________________________________________________
INFO:Reinforcement.Functions:dense_134 (Dense)               (None, 1, 128)       16512       activation_130[0][0]             
INFO:Reinforcement.Functions:__________________________________________________________________________________________________
INFO:Reinforcement.Functions:add_66 (Add)                    (None, 1, 128)       0           dense_134[0][0]                  
INFO:Reinforcement.Functions:                                                                 activation_129[0][0]             
INFO:Reinforcement.Functions:__________________________________________________________________________________________________
INFO:Reinforcement.Functions:activation_131 (Activation)     (None, 1, 128)       0           add_66[0][0]                     
INFO:Reinforcement.Functions:__________________________________________________________________________________________________
INFO:Reinforcement.Functions:dense_135 (Dense)               (None, 1, 128)       16512       activation_131[0][0]             
INFO:Reinforcement.Functions:__________________________________________________________________________________________________
INFO:Reinforcement.Functions:activation_132 (Activation)     (None, 1, 128)       0           dense_135[0][0]                  
INFO:Reinforcement.Functions:__________________________________________________________________________________________________
INFO:Reinforcement.Functions:dense_136 (Dense)               (None, 1, 128)       16512       activation_132[0][0]             
INFO:Reinforcement.Functions:__________________________________________________________________________________________________
INFO:Reinforcement.Functions:add_67 (Add)                    (None, 1, 128)       0           dense_136[0][0]                  
INFO:Reinforcement.Functions:                                                                 activation_131[0][0]             
INFO:Reinforcement.Functions:__________________________________________________________________________________________________
INFO:Reinforcement.Functions:activation_133 (Activation)     (None, 1, 128)       0           add_67[0][0]                     
INFO:Reinforcement.Functions:__________________________________________________________________________________________________
INFO:Reinforcement.Functions:dense_137 (Dense)               (None, 1, 1)         129         activation_133[0][0]             
INFO:Reinforcement.Functions:__________________________________________________________________________________________________
INFO:Reinforcement.Functions:reshape_2 (Reshape)             (None, 1)            0           dense_137[0][0]                  
INFO:Reinforcement.Functions:==================================================================================================
INFO:Reinforcement.Functions:Total params: 1,076,481
INFO:Reinforcement.Functions:Trainable params: 1,076,481
INFO:Reinforcement.Functions:Non-trainable params: 0
INFO:Reinforcement.Functions:__________________________________________________________________________________________________
…
